docs/12-6_initialization_answer/checkpoints/best_model.pt (torch, 658287 bytes, 6 tensors)

fc_layers.0.weight f4 [196, 784]
0.05105312 0.021754786 0.0067957076 0.09737535 0.09789276 -0.05772316 -0.07949892 0.008005595
0.010695631 0.032688063 0.08366096 -0.056502614 -0.08207716 0.04687082 -0.04268548 0.05478586
0.033611797 -0.08200855 0.03259224 -0.0043657543 0.06585724 0.062461153 0.078777544 -0.093583435
0.047099005 0.045965463 0.03766654 0.02976577 -0.0020838762 -0.0044233757 -0.01567236 0.049016148
0.07066282 -0.028875362 0.022677347 0.100948066 -0.0040332805 -0.05280734 -0.055283282 0.051363174
0.041060444 0.085709855 -0.018124688 0.08750948 0.07520067 -0.0758584 -0.009420344 -0.008630064
0.10699594 -0.047109272 0.0005035104 -0.082818866 -0.0061289878 -0.078326546 -0.049143896 -0.02688173
0.034455564 -0.05826578 -0.015105564 0.0634492 -0.0040074624 -0.023308603 0.055070885 0.06902276
0.057283785 0.0098319715 0.029120995 -0.061763875 0.0093181925 -0.00902129 -0.08981977 -0.021515414
-0.004378071 -0.019434446 -0.038218353 -0.030740159 -0.022881141 0.006765848 0.02983493 -0.023767855
-0.018003348 -0.0007949487 0.043353565 -0.07337796 0.13778168 -0.052881923 -0.02558236 -0.057090327
-0.06451893 -0.064006306 -0.014564098 -0.012662128 0.0017679201 0.05120856 0.0370915 -0.06801582
-0.033966176 -0.06633507 0.013789507 -0.05904161 0.043278497 -0.09150535 -0.019265769 0.07975266
-0.049670845 -0.12688713 0.011674406 0.009338747 -0.04043024 0.07471166 -0.00015508462 -0.02944655
-0.027860127 0.0174632 -0.017518463 0.063374065 -0.0059497454 -0.0376694 -0.087848954 0.015038597
-0.043889455 0.067131944 -0.025301822 -0.06161413 -0.06639643 -0.015606567 -0.05947836 -0.060094405
0.046282794 -0.029048108 -0.07534574 -0.028804312 -0.07801133 0.021429366 0.1008096 -0.06562038
-0.08231198 0.03725447 -0.00068329734 -0.024916695 0.07980969 0.0009696697 0.05808319 0.05929532
0.040530067 -0.011553394 0.0885382 -0.010356202 -0.05841254 0.048884466 -0.008238138 -0.101080164
-0.098781615 -0.07957261 -0.039299242 -0.03109909 -0.018521374 -0.014844328 -0.01483069 -0.040481273
-0.022988744 -0.09415848 0.017766485 -0.03214593 0.07619006 0.0017050188 -0.026757902 -0.06589904
-0.0720124 -0.05177462 0.048699923 0.038183354 0.01131733 -0.027435103 0.08554383 0.05361827
-0.0686314 -0.017240293 -0.024752975 0.0013454693 0.02759166 0.13120942 -0.07171885 0.1076004
-0.098360725 0.068213835 -0.10767753 -0.008030373 0.050751206 0.10726908 -0.026857227 -0.035580717
0.0067161424 0.0020513413 0.018551063 0.020157034 0.05649939 -0.028572083 -0.036681693 0.10799422
0.10764425 -0.032402933 0.0016921979 -0.058171473 -0.06523846 -0.08680275 -0.045173477 -0.040602416
0.015101658 0.046178833 0.08389613 -0.009411523 0.012667752 0.013981985 -0.08152208 0.0526948
0.029897353 -0.068055056 -0.0032974768 0.057908844 -0.0066672587 -0.0049043726 -0.008666424 0.01118096
-0.07377898 0.01242764 0.07945589 0.11014798 0.07122475 0.029424446 -0.05647047 0.024461713
0.047271106 -0.0060762875 -0.061061572 -0.06296089 0.022253398 0.042409275 0.0256428 -0.021003198
-0.054332756 0.019769149 -0.004965851 0.1166286 0.021442348 0.034035582 -0.084542766 -0.018890448
0.0169623 -0.0237403 -0.06279048 -0.016561873 0.04575729 -0.038561523 0.023660481 -0.0023676814
00000000: 141d 513d 1837 b23c 87ae de3b ba6c c73d
00000010: 007c c83d 1f6f 6cbd 54d0 a2bd e629 033c
00000020: ba3c 2f3c ebe3 053d 7056 ab3d 496f 67bd
00000030: 1218 a8bd 9efb 3f3d f8d6 2ebd 2367 603d
00000040: 86ac 093d 19f4 a7bd 717f 053d 9a0e 8fbb
00000050: 29e0 863d 44d7 7f3d 1f56 a13d aca8 bfbd
00000060: e3ea 403d 4846 3c3d 3b48 1a3d 58d7 f33c
00000070: a491 08bb f7f1 90bb 5263 80bc 28c5 483d
00000080: abb7 903d 068c ecbc d8c5 b93c dcbd ce3d
00000090: 9c29 84bb 824c 58bd b970 62bd 3162 523d
000000a0: ff2e 283d a688 af3d 3a7a 94bc 2c38 b33d
000000b0: cf02 9a3d a65b 9bbd c957 1abc 1d65 0dbc
000000c0: b020 db3d a7f5 40bd 03fe 033a f09c a9bd
000000d0: add5 c8bb ab69 a0bd 1c4b 49bd 1337 dcbc
000000e0: 4721 0d3d 19a8 6ebd 547d 77bc a7f1 813d
000000f0: 0851 83bb aff1 bebc 0292 613d ce5b 8d3d
00000100: 67a2 6a3d 4716 213c 278f ee3c 1efc 7cbd
00000110: 55ab 183c 08ce 13bc 6df3 b7bd 1841 b0bc
00000120: ec75 8fbb fd34 9fbc d98a 1cbd c9d2 fbbc
00000130: 3b71 bbbc 0cb4 dd3b 6268 f43c ceb4 c2bc
00000140: c27b 93bc 1b64 50ba 8293 313d 2f47 96bd
00000150: a416 0d3e b79a 58bd 1992 d1bc 8cd7 69bd
00000160: 8022 84bd bd15 83bd 419e 6ebc d074 4fbc
00000170: 8eb9 e73a 11c0 513d 42ed 173d e14b 8bbd
00000180: 1e20 0bbd aeda 87bd 62ed 613c 9ed5 71bd
00000190: cb44 313d 2867 bbbd 3fd3 9dbc 5d55 a33d
000001a0: a873 4bbd b3ee 01be 0246 3f3c 8b01 193c
000001b0: 2e9a 25bd 6d02 993d 369e 22b9 e439 f1bc
000001c0: ec3a e4bc fc0e 8f3c e182 8fbc 43ca 813d
000001d0: 15f6 c2bb 3b4b 1abd 27ea b3bd 7364 763c
000001e0: 6ec5 33bd 797c 893d c445 cfbc 195f 7cbd
000001f0: dafa 87bd b0b2 7fbc 959f 73bd 8d25 76bd
00000200: 0793 3d3d 4cf6 edbc de4e 9abd 05f7 ebbc
00000210: 67c4 9fbd a38c af3c 4375 ce3d fa63 86bd
00000220: 2f93 a8bd 2598 183d 4f1f 33ba 191e ccbc
00000230: 4373 a33d 6f31 7e3a a4e8 6d3d a6df 723d
00000240: db02 263d 724a 3dbc 8453 b53d 0fad 29bc
00000250: fd41 6fbd 143b 483d 41f9 06bc 1e03 cfbd
00000260: 044e cabd f7f6 a2bd 3ef8 20bd 85c3 febc
00000270: 23ba 97bc a035 73bc 6cfc 72bc b1cf 25bd
00000280: e452 bcbc 29d6 c0bd 058b 913c 73ab 03bd
00000290: 8909 9c3d f07a df3a 6333 dbbc 13f6 86bd
000002a0: 3d7b 93bd a011 54bd 9279 473d 2666 1c3d
000002b0: 536c 393c 95bf e0bc 9b31 af3d d59e 5b3d
000002c0: 9f8e 8cbd 843b 8dbc c0c6 cabc 755a b03a
000002d0: e807 e23c c35b 063e 55e1 92bd 995d dc3d
000002e0: 5971 c9bd b2b3 8b3d 0986 dcbd d391 03bc
000002f0: 7fe0 4f3d e4af db3d b003 dcbc 16bd 11bd
00000300: 1613 dc3b cc6f 063b 66f8 973c 5d20 a53c
00000310: e86b 673d 0010 eabc 8b3f 16bd 132c dd3d
00000320: 9774 dc3d f0b8 04bd bdcc dd3a 3645 6ebd
00000330: be9b 85bd a4c5 b1bd d307 39bd b84e 26bd
00000340: f26c 773c 0426 3d3d bcd1 ab3d ca32 1abc
00000350: 678c 4f3c b214 653c 0cf5 a6bd 81d6 573d
00000360: 4beb f43c 7360 8bbd 7b1a 58bb d331 6d3d
00000370: 0579 dabb dcb4 a0bb 9efd 0dbc 5830 373c
00000380: 6f19 97bd 4d9d 4b3c c5b9 a23d 4495 e13d
00000390: 48de 913d 890b f13c 944d 67bd ee63 c83c
000003a0: 599f 413d 981b c7bb b31b 7abd a4f1 80bd
000003b0: c24c b63c 59b5 2d3d d910 d23c e60e acbc
000003c0: 068c 5ebd e9f2 a13c 94b8 a2bb fada ee3d
000003d0: dda7 af3c e568 0b3d c224 adbd 24c0 9abc
000003e0: 85f4 8a3c 057b c2bc 4c98 80bd c4ac 87bc
000003f0: ff6b 3b3d b0f2 1dbd a0d3 c13c 1a2b 1bbb

fc_layers.0.bias f4 [196]
0.0 0.0 0.0 0.0 0.0 0.0 0.0 0.0
0.0 0.0 0.0 0.0 0.0 0.0 0.0 0.0
0.0 0.0 0.0 0.0 0.0 0.0 0.0 0.0
0.0 0.0 0.0 0.0 0.0 0.0 0.0 0.0
0.0 0.0 0.0 0.0 0.0 0.0 0.0 0.0
0.0 0.0 0.0 0.0 0.0 0.0 0.0 0.0
0.0 0.0 0.0 0.0 0.0 0.0 0.0 0.0
0.0 0.0 0.0 0.0 0.0 0.0 0.0 0.0
0.0 0.0 0.0 0.0 0.0 0.0 0.0 0.0
0.0 0.0 0.0 0.0 0.0 0.0 0.0 0.0
0.0 0.0 0.0 0.0 0.0 0.0 0.0 0.0
0.0 0.0 0.0 0.0 0.0 0.0 0.0 0.0
0.0 0.0 0.0 0.0 0.0 0.0 0.0 0.0
0.0 0.0 0.0 0.0 0.0 0.0 0.0 0.0
0.0 0.0 0.0 0.0 0.0 0.0 0.0 0.0
0.0 0.0 0.0 0.0 0.0 0.0 0.0 0.0
0.0 0.0 0.0 0.0 0.0 0.0 0.0 0.0
0.0 0.0 0.0 0.0 0.0 0.0 0.0 0.0
0.0 0.0 0.0 0.0 0.0 0.0 0.0 0.0
0.0 0.0 0.0 0.0 0.0 0.0 0.0 0.0
0.0 0.0 0.0 0.0 0.0 0.0 0.0 0.0
0.0 0.0 0.0 0.0 0.0 0.0 0.0 0.0
0.0 0.0 0.0 0.0 0.0 0.0 0.0 0.0
0.0 0.0 0.0 0.0 0.0 0.0 0.0 0.0
0.0 0.0 0.0 0.0
00000000: 0000 0000 0000 0000 0000 0000 0000 0000
00000010: 0000 0000 0000 0000 0000 0000 0000 0000
00000020: 0000 0000 0000 0000 0000 0000 0000 0000
00000030: 0000 0000 0000 0000 0000 0000 0000 0000
00000040: 0000 0000 0000 0000 0000 0000 0000 0000
00000050: 0000 0000 0000 0000 0000 0000 0000 0000
00000060: 0000 0000 0000 0000 0000 0000 0000 0000
00000070: 0000 0000 0000 0000 0000 0000 0000 0000
00000080: 0000 0000 0000 0000 0000 0000 0000 0000
00000090: 0000 0000 0000 0000 0000 0000 0000 0000
000000a0: 0000 0000 0000 0000 0000 0000 0000 0000
000000b0: 0000 0000 0000 0000 0000 0000 0000 0000
000000c0: 0000 0000 0000 0000 0000 0000 0000 0000
000000d0: 0000 0000 0000 0000 0000 0000 0000 0000
000000e0: 0000 0000 0000 0000 0000 0000 0000 0000
000000f0: 0000 0000 0000 0000 0000 0000 0000 0000
00000100: 0000 0000 0000 0000 0000 0000 0000 0000
00000110: 0000 0000 0000 0000 0000 0000 0000 0000
00000120: 0000 0000 0000 0000 0000 0000 0000 0000
00000130: 0000 0000 0000 0000 0000 0000 0000 0000
00000140: 0000 0000 0000 0000 0000 0000 0000 0000
00000150: 0000 0000 0000 0000 0000 0000 0000 0000
00000160: 0000 0000 0000 0000 0000 0000 0000 0000
00000170: 0000 0000 0000 0000 0000 0000 0000 0000
00000180: 0000 0000 0000 0000 0000 0000 0000 0000
00000190: 0000 0000 0000 0000 0000 0000 0000 0000
000001a0: 0000 0000 0000 0000 0000 0000 0000 0000
000001b0: 0000 0000 0000 0000 0000 0000 0000 0000
000001c0: 0000 0000 0000 0000 0000 0000 0000 0000
000001d0: 0000 0000 0000 0000 0000 0000 0000 0000
000001e0: 0000 0000 0000 0000 0000 0000 0000 0000
000001f0: 0000 0000 0000 0000 0000 0000 0000 0000
00000200: 0000 0000 0000 0000 0000 0000 0000 0000
00000210: 0000 0000 0000 0000 0000 0000 0000 0000
00000220: 0000 0000 0000 0000 0000 0000 0000 0000
00000230: 0000 0000 0000 0000 0000 0000 0000 0000
00000240: 0000 0000 0000 0000 0000 0000 0000 0000
00000250: 0000 0000 0000 0000 0000 0000 0000 0000
00000260: 0000 0000 0000 0000 0000 0000 0000 0000
00000270: 0000 0000 0000 0000 0000 0000 0000 0000
00000280: 0000 0000 0000 0000 0000 0000 0000 0000
00000290: 0000 0000 0000 0000 0000 0000 0000 0000
000002a0: 0000 0000 0000 0000 0000 0000 0000 0000
000002b0: 0000 0000 0000 0000 0000 0000 0000 0000
000002c0: 0000 0000 0000 0000 0000 0000 0000 0000
000002d0: 0000 0000 0000 0000 0000 0000 0000 0000
000002e0: 0000 0000 0000 0000 0000 0000 0000 0000
000002f0: 0000 0000 0000 0000 0000 0000 0000 0000
00000300: 0000 0000 0000 0000 0000 0000 0000 0000

fc_layers.2.weight f4 [49, 196]
-0.018646495 0.028851327 0.15028057 0.09937872 -0.03907921 -0.14602987 -0.113494396 0.032026004
0.09080089 0.036718924 0.21151388 -0.045205597 0.08045667 -0.008837879 -0.027071845 -0.05618718
-0.014984186 0.18407418 -0.069027476 0.04891472 0.018475488 -0.17536278 -0.012794316 0.048547827
-0.045384884 -0.28821588 -0.06097147 0.04819567 0.027836455 -0.07324052 -0.17943901 0.062794514
0.027328786 0.02736826 -0.033848878 -0.021984436 0.049111344 0.02385549 -0.02152299 -0.062465727
0.07210491 -0.14549778 0.03876106 0.060363363 -0.049520623 -0.02609518 -0.014896317 0.057825055
-0.009564712 0.02680272 -0.08697374 -0.06616013 -0.04154905 -0.04596892 0.10196263 0.035044286
-0.11353862 -0.13941978 0.049180478 -0.074381694 0.030283347 0.11862003 0.036732152 -0.04409877
0.17017972 -0.017401358 0.11612139 -0.024970729 -0.027301563 -0.16045958 0.06943614 0.0070451647
-0.07892671 -0.027357588 -0.08711881 0.017945223 -0.03767724 0.11019339 0.13510472 -0.04518846
-0.03357405 0.0705868 -0.081740804 0.0974649 -0.021137623 -0.11353304 -0.12237948 -0.014387693
0.019546203 0.11844697 -0.050063096 0.003772721 -0.014696507 0.015411675 -0.0991577 -0.2265089
0.009061815 0.23816703 0.10521861 -0.14338718 -0.04999038 -0.05132843 -0.04203895 0.0400468
-0.04741302 -0.007794223 0.06158943 0.10355207 -0.04922144 0.046557665 0.23755452 0.024993582
0.2180894 0.026439294 0.043332517 0.023288624 0.0121709425 0.07359227 -0.113654085 0.07320876
0.06782099 -0.027585188 -0.11210264 0.011080333 -0.11287131 -0.011683417 -0.10339877 0.010448736
0.0662942 0.1020473 0.031233149 0.009332611 -0.08993048 0.009717525 0.04372263 0.081895486
0.09888741 -0.09913276 -0.07832089 -0.02441126 -0.20948172 0.03582653 -0.0926634 0.12124709
-0.09102232 -0.12290753 -0.08036886 -0.025857223 0.043081857 0.061283592 -0.015255701 -0.026867209
0.016506504 -0.09657025 -0.09201302 -0.080926925 -0.1263975 -0.09046736 -0.08838785 -0.108829185
-0.015119026 -0.0030886023 -0.17090033 -0.023931313 0.0635966 -0.06743418 -0.10023304 -0.0074921153
-0.10310203 0.03868888 -0.11656006 -0.0027755117 0.0429402 0.033663437 0.02761003 -0.119471
-0.059508517 0.010048574 -0.022232674 -0.08764279 0.01935207 0.09798916 -0.03854173 0.12494647
0.10338057 -0.060084157 -0.1680679 -0.06353354 -0.06846413 -0.0778582 0.0658802 0.0928652
0.020581061 0.12674472 -0.2308168 -0.02363373 -0.033766463 -0.26512778 0.010020606 -0.10791154
0.08147374 0.024359347 0.06915395 0.062250663 -0.0014303941 -0.021899147 -0.14685813 0.11708614
-0.13799576 -0.113048546 0.0058920947 -0.012743689 -0.0688458 -0.086652115 0.058719274 -0.18131159
0.024779178 0.004841743 0.17747523 0.081916146 -0.011353657 -0.18291284 0.0012987893 0.15222575
0.09982057 -0.029349843 0.072649226 0.00864313 0.11416972 0.03885176 0.026238738 0.035037432
0.06907905 0.07045769 -0.097663864 0.07391363 0.10216939 0.112196974 0.21612512 0.0013466013
0.024943028 0.0051815826 -0.071780734 0.032339163 -0.042705413 -0.106385216 0.022037007 -0.07388572
-0.100384936 -0.04213059 -0.0038764982 -0.0820159 0.004117287 -0.029158885 0.16445713 -0.11234473
00000000: 89c0 98bc 9e59 ec3c 26e3 193e 1287 cb3d
00000010: 8611 20bd db88 15be c06f e8bd b32d 033d
00000020: d1f5 b93d 9566 163d 1897 583e 8129 39bd
00000030: 77c6 a43d c0cc 10bc c6c5 ddbc 8724 66bd
00000040: 3b80 75bc f17d 3c3e 475e 8dbd cd5a 483d
00000050: e859 973c 4d92 33be 409f 51bc 16da 463d
00000060: 80e5 39bd 0891 93be 38bd 79bd d368 453d
00000070: 4709 e43c 20ff 95bd dcbe 37be 699a 803d
00000080: 9ee0 df3c 6733 e03c 1fa5 0abd b418 b4bc
00000090: fa28 493d 976c c33c fb50 b0bc 10dc 7fbd
000000a0: bdab 933d 5ffd 14be ebc3 1e3d 933f 773d
000000b0: 23d6 4abd 8fc5 d5bc af0f 74bc f7d9 6c3d
000000c0: 4fb5 1cbc 6191 db3c 4a1f b2bd f67e 87bd
000000d0: 562f 2abd e849 3cbd c9d1 d03d 998a 0f3d
000000e0: f086 e8bd 0fc4 0ebe 7871 493d 6e55 98bd
000000f0: c814 f83c 0fef f23d 7474 163d e9a0 34bd
00000100: 9843 2e3e 4b8d 8ebc 0dd1 ed3d 6a8f ccbc
00000110: 87a7 dfbc 844f 24be 8934 8e3d 20db e63b
00000120: 54a4 a1bd 051d e0bc 596b b2bd dc01 933c
00000130: 7353 1abd 12ad e13d e458 0a3e 8917 39bd
00000140: f184 09bd d08f 903d b967 a7bd ad9b c73d
00000150: cf28 adbc 0384 e8bd 18a2 fabd 5cba 6bbc
00000160: 5c1f a03c 5394 f23d f60e 4dbd c13f 773b
00000170: 9ec9 70bc 4081 7c3c 3113 cbbd f3f1 67be
00000180: 0278 143c 0fe2 733e db7c d73d 17d4 12be
00000190: b6c2 4cbd c33d 52bd 0931 2cbd 1d08 243d
000001a0: 2834 42bd ae66 ffbb 3345 7c3d 1c13 d43d
000001b0: 6c9c 49bd 40b3 3e3d 7e41 733e 57bf cc3c
000001c0: d452 5f3e 3897 d83c 707d 313d c9c7 be3c
000001d0: a268 473c 8bb7 963d 79c3 e8bd 79ee 953d
000001e0: bbe5 8a3d 55fa e1bc 1296 e5bd 498a 353c
000001f0: 1329 e7bd cd6b 3fbc bcc2 d3bd 2d31 2b3c
00000200: 41c5 873d 2dfe d03d a9dc ff3c cfe7 183c
00000210: 792d b8bd 4136 1f3c 8016 333d d2b8 a73d
00000220: 7b85 ca3d 1e06 cbbd b466 a0bd 1ffa c7bc
00000230: 6082 56be d7be 123d 4fc6 bdbd 6550 f83d
00000240: e969 babd f1b6 fbbd 6e98 a4bd 87d2 d3bc
00000250: 9a76 303d 8104 7b3d 0cf3 79bc 9f18 dcbc
00000260: a638 873c a0c6 c5bd 5271 bcbd 04bd a5bd
00000270: 596e 01be f446 b9bd b004 b5bd d6e1 debd
00000280: cbb5 77bc 266a 4abb 7f00 2fbe 9a0b c4bc
00000290: ef3e 823d ee1a 8abd fb46 cdbd 6b80 f5bb
000002a0: 2827 d3bd 3b78 1e3d 0ab7 eebd 5ce5 35bb
000002b0: 10e2 2f3d ace2 093d 6e2e e23c 36ad f4bd
000002c0: 34bf 73bd c6a2 243c 4c21 b6bc 107e b3bd
000002d0: 3b88 9e3c 8aae c83d efdd 1dbd efe3 ff3d
000002e0: 31b9 d33d ce1a 76bd fe19 2cbe df1d 82bd
000002f0: ec36 8cbd 1f74 9fbd 33ec 863d 1c30 be3d
00000300: 9d99 a83c 5ec9 013e 3d5b 6cbe 869b c1bc
00000310: b44e 0abd d4be 87be 782d 243c ba00 ddbd
00000320: b4db a63d 418d c73c 96a0 8d3d 8dfa 7e3d
00000330: 107c bbba d765 b3bc fa61 16be dcca ef3d
00000340: c34e 0dbe ff85 e7bd 7912 c13b e8ca 50bc
00000350: 07ff 8cbd aa76 b1bd 9f83 703d bfa9 39be
00000360: b4fd ca3c 7ca7 9e3b 11bc 353e a7c3 a73d
00000370: b004 3abc 814d 3bbe 233c aa3a 11e1 1b3e
00000380: ba6e cc3d 156f f0bc 1ec9 943d ea9b 0d3c
00000390: d0d1 e93d 0623 1f3d 9ff2 d63c 6983 0f3d
000003a0: 5179 8d3d 1f4c 903d fe03 c8bd 0760 973d
000003b0: 2f3e d13d 87c7 e53d e74f 5d3e 7180 b03a
000003c0: 5255 cc3c 44ca a93b c701 93bd 1276 043d
000003d0: dfeb 2ebd 7ee0 d9bd f486 b43c 6551 97bd
000003e0: 9e96 cdbd 2091 2cbd d90c 7ebb f4f7 a7bd
000003f0: 4fea 863b 9dde eebc 7367 283e fe14 e6bd

fc_layers.2.bias f4 [49]
0.0 0.0 0.0 0.0 0.0 0.0 0.0 0.0
0.0 0.0 0.0 0.0 0.0 0.0 0.0 0.0
0.0 0.0 0.0 0.0 0.0 0.0 0.0 0.0
0.0 0.0 0.0 0.0 0.0 0.0 0.0 0.0
0.0 0.0 0.0 0.0 0.0 0.0 0.0 0.0
0.0 0.0 0.0 0.0 0.0 0.0 0.0 0.0
0.0
00000000: 0000 0000 0000 0000 0000 0000 0000 0000
00000010: 0000 0000 0000 0000 0000 0000 0000 0000
00000020: 0000 0000 0000 0000 0000 0000 0000 0000
00000030: 0000 0000 0000 0000 0000 0000 0000 0000
00000040: 0000 0000 0000 0000 0000 0000 0000 0000
00000050: 0000 0000 0000 0000 0000 0000 0000 0000
00000060: 0000 0000 0000 0000 0000 0000 0000 0000
00000070: 0000 0000 0000 0000 0000 0000 0000 0000
00000080: 0000 0000 0000 0000 0000 0000 0000 0000
00000090: 0000 0000 0000 0000 0000 0000 0000 0000
000000a0: 0000 0000 0000 0000 0000 0000 0000 0000
000000b0: 0000 0000 0000 0000 0000 0000 0000 0000
000000c0: 0000 0000

fc_layers.4.weight f4 [10, 49]
-0.056473136 0.1152557 0.062433034 0.11321227 0.13275616 0.09078883 0.037972704 -0.13523267
-0.02316472 -0.078951076 -0.13991033 -0.102815226 0.06700657 -0.0073895007 -0.08193662 0.00081916153
0.10409038 -0.060702838 -0.047371767 0.014909595 0.040882826 0.019609839 -0.09210958 0.02696456
0.069391206 0.11979057 -0.023561463 0.0023432672 -0.09741402 0.081048906 -0.080696926 -0.09992661
0.12543343 -0.057733536 0.12673153 -0.105874136 -0.015545636 0.055633143 0.058392048 0.08050187
0.089642644 0.13977973 -0.088885635 0.05139914 0.01780574 -0.10395336 0.007866606 0.029943287
-0.13962932 -0.029459119 0.09712683 -0.12921141 0.0671023 -0.14132993 -0.04091113 -0.007428378
-0.061804347 -0.020899877 -0.07800615 -0.0040381253 0.00416176 -0.114109024 -0.11170229 -0.09334578
-0.059444547 -0.09594248 -0.10574384 0.12853386 -0.10660921 0.025912017 0.10693999 0.018465787
0.057203963 0.095116794 -0.024007425 0.06305611 0.08757162 -0.12811795 0.012278169 -0.036175966
0.035878733 -0.104471445 0.093816504 -0.004379019 0.04315962 -0.1399228 0.031218842 0.109074876
-0.03233128 0.09447192 -0.111228675 0.083268866 0.02224572 0.004269883 -0.100421876 0.020693794
-0.022637233 -0.09956636 0.043845773 0.046237826 0.09789516 -0.06148541 -0.025211506 0.037668347
-0.1030699 -0.100123495 0.14048089 -0.031452894 -0.09452063 0.0011940747 -0.0461575 0.037721813
0.114191875 -0.08454859 0.029412419 0.07327978 0.13998379 -0.14166895 -0.08966264 0.05916573
-0.06438385 -0.05024118 0.06774087 0.10946955 0.07112408 0.030103534 -0.096979484 0.109019354
-0.13579503 -0.040708117 0.037249774 0.10400808 -0.08128674 -0.0821928 -0.06679382 0.0023806393
0.12279914 0.10088822 -0.012325272 0.0234036 0.086641744 -0.019386306 0.031999424 0.09901585
-0.064000934 0.093279645 -0.12152846 0.0060426146 -0.0728744 0.036404565 0.07609595 -0.04017113
-0.069475345 -0.0038181096 -0.032709464 0.026819006 0.076941475 -0.06837503 0.0006351769 -0.097229466
0.03885804 -0.09935963 -0.039446257 -0.021765508 -0.089408316 -0.13008854 0.10939713 -0.020448618
-0.123350844 -0.006858945 0.045077503 0.083768725 0.007596463 0.0062128156 0.077322885 -0.08761835
-0.123644665 -0.0711443 0.045157924 -0.07798025 -0.10398041 0.11889242 0.10677931 -0.015729815
0.095302075 -0.09309284 0.13595797 -0.11249224 0.024963737 0.13296367 -0.116932735 0.034584
-0.004225597 0.122087404 0.07637343 -0.110259175 -0.031626396 -0.008529916 -0.116981305 -0.14221688
0.00085531175 0.029160082 0.0012017637 -0.13148697 -0.11846913 0.12524335 0.01718843 -0.04283864
-0.09386617 0.025242522 0.08481111 0.12186979 -0.042280793 -0.1323699 -0.02003631 -0.14227834
0.077960566 0.06493688 0.08033593 -0.049271487 -0.07365978 0.12549625 -0.06335889 0.03832522
-0.10799029 -0.08542526 -0.036681347 0.07085909 -0.032996893 0.12674825 0.10599397 -0.026308179
0.019235536 -0.010650024 -0.019930668 -0.046563454 0.042295873 0.056458384 0.07853231 0.03364584
-0.0036758184 -0.005556792 0.083805606 -0.031180635 -0.05168193 -0.13550788 0.0035761893 0.042245403
0.08845061 -0.032471076 0.05791363 0.045520052 -0.115232356 -0.11925885 -0.13333975 -0.04653023
00000000: 6050 67bd 2e0b ec3d c8b9 7f3d d6db e73d
00000010: 3bf1 073e 7eef b93d 4489 1b3d 6f7a 0abe
00000020: f0c3 bdbc 1ab1 a1bd a744 0fbe ca90 d2bd
00000030: be3a 893d a023 f2bb 63ce a7bd 00bd 563a
00000040: 562d d53d 8aa3 78bd e608 42bd 6047 743c
00000050: c074 273d d0a4 a03c f3a3 bcbd c8e4 dc3c
00000060: fa1c 8e3d c254 f53d f803 c1bc 8091 193b
00000070: 0081 c7bd f8fc a53d 6e44 a5bd 53a6 ccbd
00000080: 9f71 003e 007a 6cbd e9c5 013e 8ad4 d8bd
00000090: 20b3 7ebc 94df 633d 802c 6f3d 2ade a43d
000000a0: 9096 b73d 6b22 0f3e ac09 b6bd e887 523d
000000b0: 58dd 913c 80e5 d4bd f0e2 003c a04b f53c
000000c0: fdfa 0ebe 4054 f1bc 6eea c63d ff4f 04be
000000d0: ee6c 893d cbb8 10be 6e92 27bd c069 f3bb
000000e0: 8e26 7dbd 3836 abbc b0c1 9fbd 4052 84bb
000000f0: 605f 883b feb1 e9bd 2cc4 e4bd 132c bfbd
00000100: 207c 73bd 7e7d c4bd 3a90 d8bd 619e 033e
00000110: ee55 dabd 7045 d43c 5a03 db3d 9045 973c
00000120: b44e 6a3d 98cc c23d 38ab c4bc 9023 813d
00000130: c058 b33d 5a31 03be 602a 493c 402d 14bd
00000140: 94f5 123d 20f5 d5bd de22 c03d e07d 8fbb
00000150: 24c8 303d ec47 0fbe a8be ff3c a662 df3d
00000160: ce6d 04bd 7e7a c13d dccb e3bd de88 aa3d
00000170: a83c b63c 60ea 8b3b fca9 cdbd 0886 a93c
00000180: b871 b9bc 73e9 cbbd a097 333d e063 3d3d
00000190: 427d c83d 20d8 7bbd 5c88 cebc 204a 1a3d
000001a0: 5016 d3bd 8c0d cdbd 39da 0f3e c0d4 00bd
000001b0: 0894 c1bd 8082 9c3a a60f 3dbd 3082 1a3d
000001c0: 6edd e93d d027 adbd 50f2 f03c b613 963d
000001d0: e957 0f3e aa11 11be 0ca1 b7bd c457 723d
000001e0: aedb 83bd b2c9 4dbd babb 8a3d 9231 e03d
000001f0: 80a9 913d b09b f63c 2e9d c6bd 8a45 df3d
00000200: da0d 0bbe 8ebd 26bd 3893 183d 3002 d53d
00000210: aa79 a6bd b354 a8bd 33cb 88bd 8004 1c3b
00000220: 1e7e fb3d 7c9e ce3d f0ef 49bc e8b8 bf3c
00000230: 3a71 b13d 08d0 9ebc d411 033d d2c8 ca3d
00000240: ec12 83bd 6609 bf3d eae3 f8bd 2001 c63b
00000250: 2c3f 95bd f41c 153d 32d8 9b3d 7c8a 24bd
00000260: 1749 8ebd 4039 7abb 5cfa 05bd 88b3 db3c
00000270: 7e93 9d3d 3508 8cbd 0082 263a 3e20 c7bd
00000280: 9c29 1f3d 107d cbbd 6692 21bd 944d b2bc
00000290: b51b b7bd ee35 05be 9a0b e03d dc83 a7bc
000002a0: 5e9f fcbd 00c1 e0bb 30a3 383d f08e ab3d
000002b0: c0eb f83b e094 cb3b 765b 9e3d 4071 b3bd
000002c0: 6a39 fdbd 1ab4 91bd 84f7 383d 1cb4 9fbd
000002d0: aef3 d4bd de7d f33d 1caf da3d d0db 80bc
000002e0: bc2d c33d 75a7 bebd 9138 0b3e 5562 e6bd
000002f0: c080 cc3c a127 083e 6e7a efbd f4a7 0d3d
00000300: e076 8abb f608 fa3d ac69 9c3d 90cf e1bd
00000310: ae8a 01bd 10c1 0bbc e593 efbd 4da1 11be
00000320: 0037 603a 20e1 ee3c 8084 9d3a 85a4 06be
00000330: f19f f2bd cb3f 003e c0ce 8c3c 9277 2fbd
00000340: e83c c0bd 68c9 ce3c 72b1 ad3d de96 f93d
00000350: a02e 2dbd fa8b 07be 3023 a4bc 6ab1 11be
00000360: caa9 9f3d a0fd 843d 2a87 a43d e6d0 49bd
00000370: f0da 96bd 1782 003e 4ec2 81bd e8fa 1c3d
00000380: 032a ddbd 70f3 aebd 2e3f 16bd 921e 913d
00000390: c027 07bd 4bca 013e 5e13 d93d 4084 d7bc
000003a0: d893 9d3c 707d 2ebc a445 a3bc 52b9 3ebd
000003b0: 703e 2d3d e840 673d 8cd5 a03d 38d0 093d
000003c0: 00e6 70bb c015 b6bb 46a2 ab3d 886e ffbc
000003d0: 6eb0 53bd 94c2 0abe 805e 6a3b 8409 2d3d
000003e0: 9825 b53d 6400 05bd d836 6d3d 3c73 3a3d
000003f0: f1fe ebbd fc3d f4bd 378a 08be 7c96 3ebd

fc_layers.4.bias f4 [10]
0.014056489 0.028923422 0.019389763 -0.09558581 -0.06714769 0.04074803 0.09014206 -0.10842854
0.03221284 -0.051873393
00000000: 304d 663c d0f0 ec3c 48d7 9e3c 7ec2 c3bd
00000010: ba84 89bd 68e7 263d 669c b83d c80f debd
00000020: 9cf1 033d 3279 54bd
