docs/10-7_regularization_answer/checkpoints/best_model.pt (torch, 658287 bytes, 6 tensors)

fc_layers.0.weight f4 [196, 784]
00000000: 6578 cdbc 6643 233c 2414 433c 3036 d9bc
00000010: c7ad e1bb a31f 093d d7eb e4bc 402d 1735
00000020: 2fee 9aba 7d5c f9bc b8dd ab3c 3c73 c4ba
00000030: 5fe3 f6bc 8625 afbc 03c1 02bb 16c0 dabc
00000040: 5321 56bc 3d5e cdba 0e57 f63c 5d3c 843a
00000050: 6cbb 803c fd01 c63c e106 efbc b26d 07bd
00000060: 06a5 6e3c 93de 6e3c 07fb bebc f214 eb3c
00000070: 788f b73c b160 9abc c9f0 063d 4611 a0bb
00000080: e4e8 3b3c 4034 903c 2c51 09bc 93c7 173b
00000090: 93e2 143b dda1 f53c 15e1 d3bb 7c63 81bc
000000a0: ec83 b73b 5191 37bc 5d07 9438 a680 21bc
000000b0: d755 ecbc 4171 77bc 2de9 e2bc 589b 253c
000000c0: 5c14 a1bc 6961 d0bc 7b41 a03a da7a 32bc
000000d0: 0640 7e3c fc78 b13c e3b9 43bb 0ce6 9c3c
000000e0: b431 df3b 0574 e7bb e64f 983c 86be 0dba
000000f0: 62e7 90bc fe49 953c adc8 79bc d6d3 8fbc
00000100: 492b 51bc 84a8 af3c 8058 cf3c 6f35 c0bc
00000110: 28b5 693c 17fb c73c 0758 e8bc 64c6 24bc
00000120: 3dbf a8bc e740 f1bc 8402 a63b 0b34 e83b
00000130: 2a54 073b 5ab0 2f3c ad54 853c 5962 78bb
00000140: e2b6 dc3c 6397 f83c a66b 42bc 1928 93bc
00000150: 2830 333c 43ec 9b3c daca d3bc 80b3 6f3c
00000160: fde7 7a3c e5aa 87bc f914 a2bc 175c 9c3c
00000170: 7635 5cbc f128 943c 9ee4 4c3c 0010 a63c
00000180: 5836 083c b5eb 9dbc d7a8 3f3c 0c2d 5bbc
00000190: ffad ffba a95b dfbc 5555 ae3c e9e7 94ba
000001a0: e14b 91bc 95bd eebc 94cb 3dbc de7e 84bc
000001b0: adc5 063d 3ded 07bd 0ebc ea34 af2b d1bc
000001c0: 3efe d1bc 5857 ca3b fd6d ffbb ed6e 223c
000001d0: 88a7 48bc 7804 343b f385 07bd 9f47 03bd
000001e0: 07ac d13c 0cff a9bc df9f d3bc 036c d4bc
000001f0: 4d23 abbc 590e 5c3a 7610 c2bc 9941 f13c
00000200: 0669 06bd 0811 f43b ac58 5b3c cafb 433c
00000210: cea1 b23c 7557 8dbc 89b9 e3bc 2743 2bb9
00000220: 42a5 9b3c 843c c7bc 1aa4 e13c b5f6 0cbc
00000230: 8ef9 373c a6fc cebc 2024 d73c d776 9b3c
00000240: 00c1 2739 66b4 31bc 3e3a 883b 0bc5 c5bc
00000250: b1bc 0e3c 000a d3bc a651 babc 528d 733c
00000260: 9f67 c83c 4a07 0c3a fb85 013d ee28 cabc
00000270: b592 abbc 69f3 0d3d e63b 663c a796 063d
00000280: aa78 9c3c b67b 00bd 7261 be3c fd68 0c3b
00000290: 96eb b63c 2177 8c3c 1840 31bb 6e91 e1bc
000002a0: 181c dbba 98c2 613c 02fd f7bc 6e9e bc3b
000002b0: cfb6 b23c c895 1cbc fa7a 2a38 5e46 453c
000002c0: a665 0bbc f838 7ebc bde3 6d3c 0689 4cba
000002d0: 02e3 3b3c 8899 e53c 5f1d 1b3d a307 a23c
000002e0: 20da 8abc 16d0 9b3b 3bb9 ed3a 612d a6bc
000002f0: 89f5 1fbc f67c 2b3c c10c 153c 93f0 04bc
00000300: 7240 693b c286 303c 9a45 d1bc 641d fbbc
00000310: b66d eebc d443 90bc 7727 eabc f63a 3438
00000320: 82ed 6a3b 4b48 f1bc ebfb ef3c 6ca0 bfbc
00000330: ac77 543c d2e5 1a3b 2dd4 f83c c099 35bb
00000340: 6f26 263b b428 393c d5ba 67bc d514 81bc
00000350: 64d5 983b a313 0e3d b7e5 e03c 673e c93c
00000360: 3717 5abb 40ba b5bc 2055 c9bc 1f2a f03b
00000370: 49fd 51bc 6ef7 7d3c e734 33bc 13f2 cc3a
00000380: afba 6c3c 99ac c03c 1e86 e2b8 7f18 383c
00000390: 313b 01bd 95d8 8f39 71ef f03c 7238 9ebc
000003a0: 0225 34bb b37a bc3b 3f86 b4bc bad7 89b9
000003b0: 7ab4 f7bc e15e fd3c 1f47 98bc 83cb b7bc
000003c0: 7d71 90bb a263 27bc 6f14 0ebb e3e5 593c
000003d0: ae84 89bb f990 05bd eb7f 6cbc 0fb9 45bc
000003e0: 57aa 88bc 28ca eabc 8dd2 503c 8375 e23c
000003f0: acd6 04bc 436b a5bc 809f e03c 4d55 cabc
-0.025081823 0.0099647995 0.011906657 -0.026515096 -0.006887171 0.033477437 -0.027944488 5.631773e-07
-0.0011820252 -0.03043961 0.020979747 -0.0014987956 -0.030137716 -0.021380197 -0.001995147 -0.026702922
-0.013069469 -0.0015668344 0.030070808 0.001008879 0.01571437 0.02417087 -0.029178085 -0.033063598
0.014565712 0.014579433 -0.023313059 0.028696511 0.022407278 -0.018844934 0.032944474 -0.0048848717
0.0114691 0.01760304 -0.008381169 0.0023159727 0.0022718057 0.029984409 -0.006466041 -0.015794508
0.005600443 -0.01120408 7.0585615e-05 -0.009857332 -0.028849525 -0.015102685 -0.027699078 0.010107838
-0.019663028 -0.025437074 0.0012226546 -0.010893548 0.015518194 0.021664135 -0.0029865436 0.019152664
0.006811345 -0.007063391 0.018592786 -0.00054071133 -0.017688457 0.018223759 -0.015245599 -0.017557066
-0.012766668 0.02144266 0.025310755 -0.02346298 0.014264382 0.024411721 -0.028362287 -0.010057066
-0.020599002 -0.029449893 0.005066218 0.007086282 0.002064953 0.010723198 0.016275728 -0.0037900417
0.026942674 0.030345624 -0.011866486 -0.017963456 0.010936774 0.019033557 -0.025853563 0.0146301985
0.015314099 -0.016560981 -0.019785391 0.01908688 -0.01344048 0.018085929 0.012505678 0.020271301
0.008313738 -0.019277433 0.011697969 -0.013377439 -0.0019506811 -0.027265387 0.021280924 -0.0011360619
-0.017736377 -0.029143134 -0.011584181 -0.016173776 0.032903362 -0.033185232 4.3722724e-07 -0.025533525
-0.025633927 0.006174963 -0.007795094 0.009914142 -0.012246974 0.0027468484 -0.03308673 -0.032050725
0.025594724 -0.020751499 -0.025833068 -0.02593041 -0.020890856 0.0008394472 -0.02368949 0.029450225
-0.032815002 0.0074483193 0.01338784 0.011961887 0.02180567 -0.017253617 -0.027798431 -0.00016332847
0.0189997 -0.024320848 0.02754407 -0.008603741 0.011228932 -0.025266957 0.026262343 0.018977566
0.00015998259 -0.010846233 0.0041573336 -0.024141809 0.00871198 -0.025761604 -0.022744011 0.014865236
0.024463473 0.00053416623 0.031621914 -0.02467772 -0.020943979 0.034655962 0.014052367 0.032858517
0.019100506 -0.03136798 0.023239825 0.0021424883 0.022329133 0.017146649 -0.002704626 -0.027535167
-0.0016716747 0.013779305 -0.03027201 0.005756191 0.021815686 -0.009557195 4.064569e-05 0.012040703
-0.008508122 -0.015516512 0.014519629 -0.00078024005 0.011467697 0.028027311 0.037869807 0.019779032
-0.016949713 0.0047550304 0.0018136868 -0.02028531 -0.00976313 0.010466805 0.009097279 -0.008113998
0.003559139 0.010774316 -0.025545884 -0.030653663 -0.029105049 -0.017610468 -0.028583271 4.2970256e-05
0.0035847132 -0.029453417 0.029294929 -0.023391925 0.012967985 0.0023635519 0.03037461 -0.002771005
0.0025352498 0.011301208 -0.014143665 -0.015757004 0.00466411 0.034686696 0.027453287 0.024565889
-0.0033277997 -0.022183537 -0.024576724 0.00732924 -0.012816736 0.015500886 -0.010937906 0.0015636109
0.014448806 0.023519801 -0.00010801501 0.011236309 -0.03155059 0.00027436452 0.02941105 -0.019314025
-0.0027487879 0.0057519316 -0.02203667 -0.00026291405 -0.030237425 0.03092903 -0.0185886 -0.02243591
-0.00440806 -0.010216625 -0.002167966 0.013299438 -0.004196725 -0.03260896 -0.014434795 -0.012068047
-0.016682787 -0.028660849 0.012745512 0.027643925 -0.008107822 -0.020192748 0.027419806 -0.024698878

fc_layers.0.bias f4 [196]
00000000: 2497 f43b 3070 083d f9fc 043d 771e cc3c
00000010: 1703 6cbb b7b2 c3bb 5875 acbc 8f10 073d
00000020: f438 c63c f8dc 8dbc 43b9 f33b 74bd 283c
00000030: 42fc 083d 534a 0cbc 4ac3 0abc 43cb 21bb
00000040: a7bd 6f3b 098a 193d f959 e53c 6787 9f3c
00000050: a41a 84bb 41b2 d7bc ff33 5ebb f866 a33b
00000060: 8212 e1bb d65a 763b 90d0 bfb9 1608 f03c
00000070: d98b 1bbc 801d 063d 8a70 53bc 6696 833b
00000080: 63d2 86bc 00d9 a93c b529 dfbc 7bef 95bc
00000090: 18db 123d 72c1 213d 0bf3 7dbc ba16 aaba
000000a0: 647a 8cbc 5e7d c3b9 df79 b2bc 3bce c8bc
000000b0: f703 153d 3cbe 5a3c 7095 f43a cf96 61ba
000000c0: 2c68 f539 7382 253b be52 dc3c 4f69 533b
000000d0: c071 fbbb 6c4c af3c b2fd 513c 43c6 a6bc
000000e0: f1f4 04bd bd58 eb3b 5d63 34bc e0dc 71bb
000000f0: 1b42 283c 6d3e fa3c 0b5c 73bc 12e1 fb3c
00000100: 5ac1 a2bc c804 973c bd38 0c3d 448b 043d
00000110: fda6 1d3d 0d97 f53b 94a7 c53c 225d 02bd
00000120: 8b4b 2e3c 5f0f 75bb 3a5a 993c cfcf d3bc
00000130: 4439 bbbc ed42 0fbc b572 07bd 57a5 623b
00000140: 07b4 abbb 52fc 84bc 7c70 003c 69a9 ca3b
00000150: 749c 1b3d b0e9 6f3c f3ed f3b8 c6db b03c
00000160: 0b50 37bc c62a 67bc 9f74 f9bc 3458 8fbb
00000170: 908d 2abc 4388 bcbc 36fa e63c ced0 703c
00000180: c767 3e3c 9d37 e73b a4b5 d53c 1276 f1bc
00000190: 406d 0dbd 4e12 4abc 3ec9 c53c 935a 603c
000001a0: 9b3e cbbb 66cf e33c 48f3 7f3c ad0d d3bc
000001b0: c41d 6f3b b986 0abd 1a6b e5bc 392f 7d3b
000001c0: 777a 8a3c 3013 ebbc 8300 b3bb 4612 ac3c
000001d0: ceb8 9fba 8825 883c 9de5 043d 1d16 f73c
000001e0: bcb1 e1bc 71ff 373c 6645 07bd 6987 263d
000001f0: 66f7 9e3c de4e fc3c 4a1e 283b ebb7 94b9
00000200: 4e22 4638 3d04 56b8 2b00 6fbc 0783 ad3c
00000210: 892f cebc 11e5 edbc 1eb7 8d3b 5fed 3c3c
00000220: 3541 55bc ce44 5c3c 76bf e3bc e176 ed3b
00000230: df57 39ba a6b0 9d3b b52d 463c 37b1 23bc
00000240: 7a34 d0bc 5111 013c 766a d7bc 339d 80bc
00000250: 4c99 5fba 6891 84bb 4404 04bd 8cfd 66bc
00000260: 46c7 01bd 4ed7 2dbc e242 dfbc 4510 813c
00000270: 7cb1 b73c e0e5 fd3b bee3 213c 3bf9 9ebb
00000280: 53e0 9cbc 096e 4c3c aa15 7d3a 7fdf 0c3c
00000290: 64a9 a0bc 84d1 09bc dd3e 193b 85e0 1d3c
000002a0: 6a6e e4bc 1c12 45bb 4ff7 d1bb b0e6 a2bc
000002b0: 856f 71bb 8ec2 aabb fa5b c5bc 0439 b4bc
000002c0: b049 863c e885 7abc e6e6 243b ca58 0b3c
000002d0: 9549 b4bc 0c38 903c 413c aeba f752 9d3c
000002e0: 3cf9 693c d990 fcbc e9e6 dd3b c260 c6bb
000002f0: c345 14bb d73d fcbb 3571 82ba beeb a4bc
00000300: 4718 dd3c 5bd2 b9ba f9c6 dcba 7f1e b33c
0.0074643064 0.033310115 0.032467816 0.02491687 -0.0036012584 -0.005972232 -0.021052048 0.032974776
0.02419708 -0.01731728 0.0074378564 0.010299075 0.033443697 -0.008562642 -0.008469412 -0.0024687804
0.0036581547 0.037485156 0.027997004 0.019473745 -0.004031496 -0.026330115 -0.0033905504 0.00498664
-0.0068686614 0.0037590764 -0.0003658575 0.02930073 -0.0094937915 0.032742977 -0.012905249 0.0040157316
-0.016457742 0.020733356 -0.027241567 -0.01830267 0.035853475 0.039491124 -0.0154998405 -0.0012976744
-0.017148204 -0.00037286704 -0.021786628 -0.0245124 0.036380734 0.0133510195 0.0018660259 -0.0008605541
0.00046807656 0.0025254756 0.026894923 0.0032258814 -0.007673472 0.021398745 0.012816833 -0.02035821
-0.032460157 0.0071822093 -0.011010018 -0.0036905333 0.010269667 0.030547345 -0.014853488 0.03074697
-0.019867588 0.018434897 0.034233797 0.032359377 0.03848933 0.0074948133 0.024127759 -0.0318271
0.010638128 -0.0037393195 0.018719781 -0.025855927 -0.022854455 -0.008743984 -0.033068378 0.0034583414
-0.005239967 -0.016233597 0.007839318 0.006184746 0.037991002 0.014643118 -0.000116314644 0.021589171
-0.011188517 -0.014109319 -0.030451117 -0.0043745283 -0.010409728 -0.023014193 0.028195482 0.01469822
0.011621422 0.00705619 0.02608759 -0.029475246 -0.034528017 -0.012333466 0.024143811 0.01369347
-0.0062025315 0.027808856 0.015621968 -0.025763357 0.0036486248 -0.033819888 -0.028005172 0.0038632883
0.016904099 -0.028695673 -0.0054627075 0.021004807 -0.0012185813 0.016619459 0.03244554 0.030161912
-0.02755057 0.011230336 -0.033025168 0.04065648 0.019405078 0.030799326 0.002565282 -0.0002836579
4.7238827e-05 -5.1025523e-05 -0.014587442 0.021180643 -0.02516915 -0.029039891 0.004324808 0.011531203
-0.013016035 0.013444139 -0.027801257 0.0072468375 -0.0007070284 0.004812318 0.012095858 -0.009990982
-0.025415648 0.007877664 -0.026295882 -0.015699958 -0.0008529618 -0.004045654 -0.03223063 -0.014098536
-0.031684183 -0.010610415 -0.027253572 0.015754828 0.022423498 0.0077483505 0.009880958 -0.004851488
-0.019149935 0.012477406 0.0009654412 0.0085982075 -0.019612022 -0.008411769 0.0023383417 0.009636049
-0.02788468 -0.0030070608 -0.0064076553 -0.019885391 -0.0036840152 -0.005211181 -0.02409171 -0.021999843
0.016392559 -0.015290715 0.002516204 0.008505056 -0.022007743 0.01760485 -0.0013293104 0.0192046
0.0142806135 -0.030830787 0.0067719114 -0.006054015 -0.002262459 -0.0076978016 -0.0009951951 -0.020131942
0.026989115 -0.0014177071 -0.0016843966 0.021865128

fc_layers.2.weight f4 [49, 196]
00000000: 892c 403c b16c cfbc 7a20 333d 7994 3b3d
00000010: f00a 0d3a 0eb4 573d c45d 3f3d 838a b5bc
00000020: 719a 963c 50cc 243c 9f99 4b3c 6fcd 78bd
00000030: 0f47 5fbd 3184 853d cb62 69bd 13cb 963c
00000040: c1d7 b4bc f145 fabc 976c 233d 4280 fbbc
00000050: de4c 833b 3993 cc3c 34b9 71bb 843f 353b
00000060: ea72 53bd 10de 47bd 95a7 213c c5c2 c33b
00000070: 00fb 2eba b12a 78bd 1de5 3abd d207 e5b9
00000080: 4827 813d 4842 cdbc d1a7 b8bc 4506 e73b
00000090: 6c6e f93c 533c 653d 2006 4fbc aa1f f0bc
000000a0: be4a 5b3d c35e e8bb 3f20 b03c f2ae 513d
000000b0: d515 383d dd34 173d 3ab8 12bc 0290 11bd
000000c0: e25b 223d 682f 0bbd 0597 213d 0782 1ebd
000000d0: 7d94 62bd 9c34 d3bc 4403 be3c 4327 43bb
000000e0: 5a73 72bd 6a45 673d 605d e93c 27b0 753d
000000f0: ca80 793d 5d76 3a3c 82f9 dd3c d1ab 6dbd
00000100: 22ce 52bc 0508 463d 82a2 563d e976 49bb
00000110: 8e2f af3a 4bc5 87bd 6f82 bfbc 2dab f8bc
00000120: e089 05bd f7c6 2bbd 5d76 0a3d 9330 8eb9
00000130: 21d8 a4bc 078c 33bd 5964 07bd 1b73 633d
00000140: a4dc 793d 600c d8bc 2275 c3bc 8dbd 0ebd
00000150: 4131 433d 17e3 ccbc 7c60 533d d200 24bd
00000160: ae5a f8bc 20cd b5bc 09b6 833c add9 e0bb
00000170: b78b 1fbd 552d c73c 4544 c7b8 dd13 dabc
00000180: 83d9 70bd cc1b 15bd a98b bfbc 41e1 6abc
00000190: b39e 55bd 2e63 16bd 1384 19b9 ed92 73bc
000001a0: 3116 cf3c 4fa2 0a3d a953 52bd aa06 7ebd
000001b0: dd65 4bbd d41d 0f37 c07e 5bbd 08a7 d2bc
000001c0: 961b b2bc 7e61 043d a967 8ebc 82b8 57bd
000001d0: d655 49bd 9355 c8bb 4e41 91bc 4399 0bbd
000001e0: a8db 3cbb 4de7 08bc 68bd e9bc 2ee0 2f3d
000001f0: e074 c9b9 6c16 8cb9 4b88 6d3d 0d4d 633d
00000200: 5e33 3e3d c595 1ebd 7ef4 23bd 82f2 8a3c
00000210: c9e4 04bd 8981 5d3d 1800 6ebd 0729 01bc
00000220: 2874 82bd d13e 3dbd 3b79 ac3c 65f8 f93c
00000230: d2d0 643d 85b0 673c 9508 b2bc e6eb 6cbd
00000240: d1f9 bbbc b9cc 8b3d dcaa 103d 7f98 41bd
00000250: 481c 03bd 6088 7fbc a483 6f3b ac2b 733d
00000260: b178 843c a3fd 593d 570d e53c ea19 89bd
00000270: feb9 8bbd 98d9 863d 00ac 05bd f412 d3bc
00000280: 9fcd 6e3d a322 16bd 3273 493d c0ac 73bd
00000290: 23be 83bc 1ed4 61bd d401 d43c b3e0 0b3c
000002a0: 162d 9dbc ab8d 87bd 13e9 e4bc fb8c 74bd
000002b0: 8dca 2a3d 31f7 743d bc34 303b c41e aebc
000002c0: 4d4c 86bc a0e2 48bd 7afa f9bc a82f 893d
000002d0: 80c9 e13b 4124 88bd 2352 52bd 026c 5b3d
000002e0: 2b99 43bd 690d 87bd f19c 7a3d 73a1 27bd
000002f0: 9e3d 8abd 7d5f 403d 058e d63c 7309 be3b
00000300: c4ec c03c bdd7 c63c 8fea 833d feb2 8a3d
00000310: e59d b8bb ec50 2fbd 7868 74bd f701 33bc
00000320: 8838 2c3a b6b3 68bd 268c 5d3d cbcc ec3c
00000330: 4d26 113c 5672 23bd c2c1 683d 083c 10bd
00000340: b3a3 0bbc a158 7fbd 27db 0cbd f97e 26bd
00000350: 2597 863d 6e7b 75bd e532 89bd 59dd 4a3d
00000360: e80f 33bd c74c 3fbd 899f 12bd 7639 2ebd
00000370: 35bd 6d3c a95f 813d 6306 8abd e2ed 04bd
00000380: 66db 363d 8235 a03c 100e f5bc 591c 6638
00000390: 2bbb 0b3d a183 583d 631b bdbc bcbf 72bd
000003a0: a7d1 e6bb 13ce 68bd d74b 1bbc d26c 703d
000003b0: 0db7 483d ffb7 febc b113 6bbc 4666 913c
000003c0: d1b2 a33b ba03 4bbd b899 ecbb 0204 643d
000003d0: 286a 863c e04e 2a3d 2987 42bb 9b26 30bc
000003e0: 8050 353c 9342 66ba 5996 86bd 2d38 58bc
000003f0: a7b8 3abd 627c 7e3b f515 3f3d 8083 e63c
0.011729368 -0.025320383 0.043732144 0.04579589 0.0005380353 0.052661948 0.04672028 -0.022160774
0.01838419 0.0100584775 0.012426763 -0.06074279 -0.054511126 0.06519354 -0.056978982 0.01840738
-0.022075536 -0.030550929 0.03989848 -0.030700807 0.004006966 0.024972545 -0.0036884071 0.0027656266
-0.051623262 -0.04879576 0.009866615 0.005974146 -0.0006674975 -0.06058759 -0.045628656 -0.0004368411
0.063063204 -0.02505602 -0.022540959 0.007050308 0.030448161 0.055965733 -0.012635738 -0.029311974
0.053538077 -0.0070913746 0.021499751 0.05119223 0.044942696 0.03691565 -0.008955056 -0.035537727
0.039638408 -0.033980757 0.039450664 -0.038698222 -0.05531739 -0.025781922 0.023194917 -0.002977804
-0.05919204 0.056462683 0.028486907 0.059982445 0.06091384 0.011380759 0.027096514 -0.058025185
-0.012866529 0.04834749 0.052401073 -0.0030741042 0.0013365613 -0.066294275 -0.023377625 -0.03035506
-0.03260219 -0.041937795 0.033804286 -0.0002712054 -0.02012259 -0.043834712 -0.033054683 0.055529695
0.061001435 -0.026373088 -0.023859564 -0.03484874 0.047654394 -0.025010629 0.051605687 -0.040039845
-0.030316677 -0.022192538 0.016078012 -0.0068618865 -0.0389516 0.024313608 -9.501776e-05 -0.0266208
-0.058801185 -0.036403462 -0.023382025 -0.014335931 -0.0521533 -0.03671568 -0.00014640419 -0.014866573
0.025279136 0.033846196 -0.051349316 -0.062018074 -0.04965769 8.530409e-06 -0.053587675 -0.025714412
-0.02174167 0.03231954 -0.017383413 -0.052666195 -0.049154125 -0.006113717 -0.017731335 -0.03408171
-0.0028817449 -0.008355928 -0.028532699 0.042938404 -0.00038424786 -0.00026719586 0.057991307 0.055493403
0.046435706 -0.03871705 -0.040028088 0.01696134 -0.03244475 0.054078612 -0.05810556 -0.007883317
-0.06369811 -0.046202485 0.021053901 0.030513952 0.05586321 0.014141207 -0.021732608 -0.057842158
-0.02294627 0.06826157 0.035319194 -0.047264572 -0.032009393 -0.015596479 0.003654697 0.05936782
0.016170831 0.053220402 0.027960462 -0.06694396 -0.068225846 0.065844715 -0.032634735 -0.025765873
0.058301564 -0.036654126 0.049182124 -0.05949092 -0.016081875 -0.05513393 0.025879778 0.008537459
-0.019186538 -0.06618818 -0.02794317 -0.059704762 0.041697074 0.059806053 0.00268869 -0.021254905
-0.016393805 -0.04904425 -0.030514944 0.06698543 0.0068904757 -0.0664754 -0.051347863 0.0535698
-0.047753494 -0.06594355 0.061184827 -0.040925454 -0.06750034 0.046966065 0.026190767 0.0057994663
0.023550399 0.024272794 0.06441223 0.06772421 -0.005634057 -0.042801782 -0.05966994 -0.010925761
0.0006569703 -0.05681201 0.054088734 0.028906247 0.008859229 -0.03990396 0.056825407 -0.0352135
-0.008522916 -0.062340382 -0.034388687 -0.040648434 0.06571797 -0.059932165 -0.066991605 0.0495275
-0.04371634 -0.04670408 -0.035796676 -0.042535268 0.0145104425 0.06317074 -0.067394994 -0.032453425
0.04464283 0.019556765 -0.029913932 5.4862674e-05 0.034114044 0.052859906 -0.023084348 -0.059264883
-0.0070440355 -0.056837153 -0.009478531 0.05869753 0.049002696 -0.031093596 -0.0143479565 0.017748963
0.004995682 -0.0495641 -0.007220473 0.055667885 0.016408041 0.041579127 -0.0029682613 -0.010751392
0.011066556 -0.0008783724 -0.06571645 -0.013196987 -0.045586254 0.0038831462 0.0466518 0.028138876

fc_layers.2.bias f4 [49]
00000000: c9e8 5ebd 7fe8 2e3d 0072 723c c31a 1e3d
00000010: aa6a ba3c 42b7 633d ca6f d6bc 4329 3a3d
00000020: 79b8 30bd bc45 693c 89f7 e6bb 57d8 623d
00000030: c299 953d 3b96 783d 9d56 88bc 4959 db3c
00000040: 99b6 2d3d 8f07 703d 85e8 963d 4491 873d
00000050: ad63 07bc a8e7 0fbd 4c76 48bd fa21 853d
00000060: a1e4 92ba a501 05bc d0d3 343d 8af3 e639
00000070: 7ca6 8e3c 1987 47bd 6aa1 80bd 1297 d63c
00000080: ebe4 c13c 4350 5d3d 7c6f a43c 3dce fa3c
00000090: 80dc db3c 1e19 8d3d 8ce2 583d 0122 1b3d
000000a0: 384a 663c 39a9 d7bc 5b8b d4bc 3dce 1f3d
000000b0: 2d5c 26bd 85b6 013c d0e7 ffbc b4d3 15bd
000000c0: b771 54bd
-0.05442122 0.042702194 0.0147976875 0.03859974 0.02275594 0.05559469 -0.026176352 0.045449506
-0.043144677 0.014237817 -0.0070485515 0.0553821 0.073047176 0.060690146 -0.016642863 0.026775973
0.042410467 0.05860096 0.07368568 0.06619504 -0.008263511 -0.035133034 -0.04894094 0.06500621
-0.0011207053 -0.008118068 0.044147313 0.0004405047 0.01741337 -0.048712824 -0.06280787 0.026195083
0.023668727 0.05403162 0.020072691 0.03061592 0.026838541 0.06889556 0.052950427 0.037874226
0.014055781 -0.026325809 -0.025945356 0.039015044 -0.04061525 0.007917051 -0.031238467 -0.03657885
-0.05186626

fc_layers.4.weight f4 [10, 49]
00000000: 3c4f 013d d4e2 4ebd 3218 07bd 1052 d6bd
00000010: ecfb 0bbe b27b 9c3c cf12 dbbd 0327 8f3b
00000020: 9d7f 913d b7e9 dbbc e671 15be aa2f d43d
00000030: aac3 0b3d ea6a 2d39 3f88 e93d dd72 113c
00000040: b993 29bd 9f45 cc3d 31bc 65bd 455d 373e
00000050: fb9a 3bbd 1514 49bd d3fa b6bc 71da 90bc
00000060: 0b05 ad3c d254 e03d c6f8 9c3b df06 5f3d
00000070: f5d4 d2bd e146 0a3d f1ce 243d 07a5 2b3c
00000080: 72ed 2b3e 637b 613c 717b 0d3e 605e 383d
00000090: 33da d03d a20d b23d 3c07 233e 9a6d 013e
000000a0: 4c97 c23d a9cf 44bd 6776 6d3d 4ebe da3d
000000b0: 5b89 6dbd 5504 203e 20d1 69bd 1632 d5bc
000000c0: 7109 7d3d 67a5 893d 3e45 debd c12c a63d
000000d0: 47bd 283d 1be0 c7bd 3ef7 c73d 1948 06be
000000e0: 6d41 f93d 4d32 2ebd 8c18 e93d 6448 acbd
000000f0: d316 013e 64a0 0a3e 8a37 c8bd d77e 17bd
00000100: 15a3 023e 87d7 96bd a6a1 82bd 34cf 223e
00000110: 24ec f8bd e9b2 82bc b719 ba3d e1a8 a6bd
00000120: b69c 963d 73a0 7abd 741c dcbb 76b6 a33d
00000130: 4a01 083d cd82 ccbc 7ed2 1fba 0991 29bd
00000140: bee6 d43d 01ef a0bd 0662 c1bd 1bb2 0b3e
00000150: 4f18 f33d 58da 173d 9873 ba3d 16e8 c5bd
00000160: 8e29 cbbd 4a2f 9ebd 8b89 eabd f340 24bd
00000170: dafd 373c e7e9 80bd a33f d0b9 8c5f d9bd
00000180: ba2a c93d 8064 c7bd 565f 7abd 1000 da3d
00000190: 8636 db3d 2cf9 1dbd bfc0 0a3e adfc fdbd
000001a0: 632a 9a3c 1d15 c2bd f516 63bd bcd4 bf3c
000001b0: 6788 b93a f617 1bbd 204d c73d a4c4 983d
000001c0: bda6 ee3d d2f4 bc3c 495a 24bd 93d7 af3d
000001d0: 5bac 09be 171f 393d 1397 053e 2203 3a3d
000001e0: 577d d2bc d0ed 1b3d fcd0 c7bd 08d1 a43d
000001f0: df23 cb3d ec56 023c 24d6 22bd e812 dabd
00000200: 3330 b5bd 0a14 07be cfe0 76bd 9cb3 3a3d
00000210: 9d89 f83d 2f1d f33d 8233 de3d 61f7 d6bd
00000220: 4cb1 c3bd 52d9 8ebd 130d d53b 3252 97bc
00000230: c482 fe3d 6b08 dfbd f8c4 3b3d ce06 8abd
00000240: a410 f8bd e21a 053e 9ee9 623d cd1d 8a3c
00000250: dbd5 813c a31b 01bd 76d8 f1bd 8021 26bc
00000260: 8c2a db3d 7c54 9a3d 2eea 033e 285a b7bc
00000270: c2ee 4c3d d4cb 193c 9db0 f43b ade5 d83d
00000280: ee74 d0bd 8e00 b1bd 5345 cf3b 813d 083c
00000290: 3dc5 7fba 56e1 23bd 2195 febd ea74 a8bd
000002a0: 57d2 0a3e 6d96 bb3c f4f3 b93d 0207 e4bd
000002b0: 46b1 0e3d 9eb8 05be 9d1a b53d 4c9b a03d
000002c0: 438b 0abe 0a14 373b 877b 04be d4b8 cabd
000002d0: c3a1 f1bd 7746 f33c fed5 3b3d e2e8 903a
000002e0: da1f 1bbd f8c3 1e3d 70d5 afbd e4a8 bb3d
000002f0: e964 d0bc a303 003e 21ea 98bc f985 6e3d
00000300: acd6 fb3d 40b6 99bd f416 0e3b 31aa 843d
00000310: d03f 383d 06e9 063e 4f5d 0abd a136 ce3a
00000320: 154c f7bd 9846 dfbc 40be 31bd a7a9 babd
00000330: 9be7 afbd 801f 44bd 7b23 ccbd 0f0a 93bc
00000340: 2747 a33d 349d 403d 2000 813c ac44 12be
00000350: 5143 a93b 3084 fe3d 011a fdbd fce6 13be
00000360: 7b07 8dbd bfac 96bb 534f ab3c 5eef e93d
00000370: 749e 0c3e 1621 37bd e7ce 1a3e 754c 74bc
00000380: eb4a d93d 2c7a f8bd ddc5 bebd a59c b33d
00000390: 595a 94bd 5ff6 84bd 3707 b93d c6f6 0d3e
000003a0: 3f09 af3c c8ff be3d b40e 80bd 238b 323c
000003b0: cf19 8a3d 39e3 643d 0b47 353d 8f59 083e
000003c0: bfa1 a1bb 6b5f eebd ad38 873d c774 4f3d
000003d0: c1d6 d43d a73c bfbc 8c8b 653d e195 9fbd
000003e0: 5b7e 7d3c bfef 03be 862f da3d cc2c ebbd
000003f0: 0605 7cbd 0ab9 0bbe 231b 13be dd27 ebbd
0.031569704 -0.05050929 -0.03298206 -0.10464871 -0.1367032 0.019101951 -0.10696947 0.004368664
0.071044184 -0.026844842 -0.1459423 0.10360654 0.034122147 0.00016538394 0.1140294 0.008877483
-0.041400645 0.09974217 -0.056087676 0.17906673 -0.045802098 -0.049091417 -0.0223364 -0.017682286
0.021120569 0.10953678 0.0047903983 0.054449912 -0.102945246 0.033759 0.040236417 0.010476357
0.16789797 0.013762328 0.1381662 0.045011878 0.10197868 0.086940065 0.15920728 0.12639466
0.09501514 -0.048049603 0.057974245 0.10680829 -0.05799232 0.15626653 -0.057084203 -0.02602486
0.061776582 0.06721001 -0.10853051 0.08114005 0.041196134 -0.097595416 0.097639546 -0.1311344
0.12170682 -0.04252844 0.11381635 -0.08412245 0.12606363 0.13537747 -0.09776218 -0.0369862
0.12757523 -0.07365327 -0.06378488 0.15899354 -0.12154415 -0.015954452 0.09086936 -0.0813768
0.07354109 -0.061188173 -0.006717259 0.07993786 0.033204354 -0.024964714 -0.00060967344 -0.041398082
0.10395573 -0.078580864 -0.094425246 0.1364216 0.11869871 0.037073463 0.09104079 -0.096634075
-0.09920035 -0.077238634 -0.114520155 -0.040101003 0.0112299565 -0.06294613 -0.00039720265 -0.10613927
0.098226026 -0.09735966 -0.061126076 0.10644543 0.10703759 -0.038567707 0.1355009 -0.1240171
0.01881904 -0.09476683 -0.055441815 0.02341687 0.0014155031 -0.037864648 0.09731507 0.07459381
0.116528966 0.023065958 -0.040125165 0.085860394 -0.13444655 0.045195665 0.13045911 0.045413144
-0.025694532 0.038068593 -0.097566575 0.08047682 0.09918951 0.007955294 -0.039755 -0.10648137
-0.08847084 -0.13191238 -0.060272988 0.045581445 0.12135623 0.11870801 0.10849668 -0.104964025
-0.09555301 -0.06975044 0.0065018027 -0.018471811 0.12427285 -0.108902775 0.04584214 -0.06739579
-0.12112549 0.12998536 0.055398576 0.016859913 0.015849045 -0.031520497 -0.11808865 -0.010139823
0.107014745 0.07535645 0.12882301 -0.022381857 0.050032385 0.009386975 0.007467343 0.10590682
-0.101785526 -0.08642684 0.0063254028 0.008315445 -0.0009756869 -0.04000982 -0.12430788 -0.082254246
0.13556801 0.022898877 0.090797335 -0.11134149 0.03483703 -0.13058707 0.08842967 0.078421205
-0.13529687 0.0027935528 -0.12937747 -0.098985344 -0.11798432 0.029696686 0.045858376 0.0011055733
-0.037872173 0.03876111 -0.08585632 0.09163073 -0.025438743 0.12501387 -0.018666329 0.058233235
0.12296805 -0.075054646 0.0021681162 0.06477774 0.04498273 0.13174829 -0.033780392 0.0015732833
-0.12075058 -0.027255341 -0.043394327 -0.0911439 -0.08589097 -0.047881603 -0.09967705 -0.017949132
0.079725556 0.04702492 0.01574713 -0.14284009 0.0051654954 0.124275565 -0.123584755 -0.14443582
-0.068861924 -0.0045982297 0.020911848 0.11422609 0.1373232 -0.044709288 0.1511799 -0.014910807
0.106099926 -0.121326774 -0.09315083 0.08770112 -0.07243795 -0.06492304 0.09034579 0.13863668
0.021366714 0.0932613 -0.062528044 0.010897431 0.06743204 0.05588076 0.044257205 0.13315414
-0.0049326117 -0.11639293 0.06602607 0.050648477 0.103925236 -0.023344351 0.056041285 -0.07792259
0.01547202 -0.12884425 0.106535956 -0.11483154 -0.06152823 -0.13644806 -0.1436582 -0.11482213

fc_layers.4.bias f4 [10]
00000000: de3e cf3c 196a 8f3d 09a3 603c 08cf 053e
00000010: 64d6 b23a fc66 1ebc 3d76 bf3c 0d06 f53d
00000020: 0b29 62bd b878 68bc
0.025298532 0.070026584 0.013710746 0.13067257 0.0013644216 -0.009668108 0.02337181 0.11964045
-0.055214923 -0.014188938
